Fimatix_Title_Classifier/models/mlp.pth (torch, 758112 bytes, 6 tensors)

network.0.weight f4 [316, 508]
0	0xbf3f9ddb	-0.74850243
1	0xbf935d8c	-1.1512923
2	0xbf625ece	-0.8842591
3	0xc04e8d48	-3.2273731
4	0xbd49d66f	-0.049276765
5	0x3e33f10d	0.17572422
6	0x3e09a94b	0.13443486
7	0x3cafac9e	0.021444615
8	0xbeb881ff	-0.3603668
9	0xbf8907a1	-1.0705453
10	0xbf1bc928	-0.60853815
11	0xbe01ddf3	-0.12682323
12	0x3fec582c	1.8464408
13	0xbdb30b34	-0.08742371
14	0x3ed0cb2a	0.40780002
15	0x3ec13d5e	0.37742132
16	0x3fe1bfa6	1.7636611
17	0xbf7098e3	-0.93983287
18	0xbf824756	-1.017802
19	0xbef7c228	-0.48390317
20	0x3f5c3c4e	0.8602952
21	0xbe3c4a61	-0.18387748
22	0xbf3131cd	-0.69216615
23	0xbf415154	-0.7551472
24	0xbdec4d23	-0.1153815
25	0x4023254a	2.549151
26	0xbfe6e015	-1.8037134
27	0xbe7e591a	-0.24838677
28	0x3dcc17c3	0.0996547
29	0x3ff22500	1.8917542
30	0xbe0801f0	-0.13281989
31	0x407b4be2	3.9265065
32	0xbf136633	-0.5757782
33	0x40256521	2.5842974
34	0x3e06d95b	0.13168852
35	0x3f3db8fa	0.74110377
36	0x403fc252	2.9962354
37	0xc002434f	-2.0353582
38	0xbe2d92b2	-0.16950491
39	0xbe194a00	-0.14969635
40	0xbe801f65	-0.25023952
41	0xbf37fb63	-0.7186796
42	0xbe0f9d84	-0.14024931
43	0xbf216678	-0.6304698
44	0x3f76743b	0.96271104
45	0xbee2a70b	-0.4426807
46	0xbd97ed57	-0.07418316
47	0xbf810c20	-1.0081825
48	0xbdad9bda	-0.08476992
49	0x3d99d5ea	0.07511504
50	0xbda1810c	-0.07885942
51	0x3fe29a34	1.7703309
52	0x3eca240a	0.3948062
53	0xbf0cb6cc	-0.54966426
54	0xbf27f1be	-0.65603244
55	0xbed809ea	-0.42195064
56	0xbf763c61	-0.9618588
57	0x40485c29	3.130625
58	0xbec8019e	-0.39063734
59	0xc08990be	-4.2989187
60	0x3f061c1d	0.5238665
61	0xbf7ebf36	-0.99510515
62	0xbf27979b	-0.65465707
63	0xbe6b7878	-0.22995174
64	0x3fca86c0	1.5822372
65	0xbee641ec	-0.4497217
66	0xbfbeac58	-1.4896345
67	0x3c1f8cda	0.0097381715
68	0xbe34fb90	-0.17674088
69	0x3feadcef	1.8348674
70	0xbf2e0295	-0.6797269
71	0xbf109978	-0.56484175
72	0xbf190313	-0.59770316
73	0x3f0377c6	0.51354635
74	0xbe74b67d	-0.23897739
75	0x3f2d891c	0.6778734
76	0xbfa4fe66	-1.2890136
77	0xbfc7332a	-1.5562489
78	0x3d9d6630	0.07685506
79	0xbfdae08a	-1.7099774
80	0xbf981777	-1.1882161
81	0x3d8ebff3	0.06970205
82	0xbf320b47	-0.6954846
83	0xbd12d042	-0.03584314
84	0xbea672f0	-0.32509565
85	0xbf19a3e8	-0.60015726
86	0x3e973ec5	0.29540077
87	0x3f346622	0.7046834
88	0xbf02363c	-0.50864005
89	0x3f8839f3	1.0642685
90	0xbe2d9f09	-0.16955198
91	0x3ec44ea1	0.3834124
92	0xbf0856c3	-0.5325739
93	0xbee82dda	-0.45347482
94	0xbf5b6550	-0.85701466
95	0xbf396a2c	-0.7242763
96	0x3e6dfd21	0.23241092
97	0xbf14151a	-0.578447
98	0x3e261c8b	0.16221826
99	0x3fb14526	1.3849227
100	0xbfaa4501	-1.3302308
101	0xbf87f2a1	-1.062092
102	0xbedb7ef0	-0.42870283
103	0x3f8047a9	1.0021869
104	0xbf8f9da8	-1.1219988
105	0xbf0ff5df	-0.56234545
106	0xbf856ea3	-1.0424389
107	0xbdbf6963	-0.09346273
108	0x3f37fd05	0.7187045
109	0xbfe3d7b2	-1.78002
110	0x3f6556e0	0.89585686
111	0x3fbc4e31	1.4711362
112	0xbc8c1193	-0.017098224
113	0xbfdc8682	-1.7228549
114	0x3eebccee	0.46054786
115	0x3faf2b6a	1.3685124
116	0xbf944f5d	-1.158672
117	0x3e76ff28	0.24120772
118	0x3e9b465c	0.30327117
119	0xbfe2f9f8	-1.7732534
120	0xbeb60379	-0.35549524
121	0xbeba0b73	-0.3633686
122	0xbfc88f24	-1.5668683
123	0xbe0fab50	-0.14030194
124	0xbf4b898b	-0.7950675
125	0x4010aefe	2.2606807
126	0xbf24194e	-0.6410111
127	0xbfb9aedf	-1.4506491
128	0xbffb9cc7	-1.965722
129	0xbed071e1	-0.40711883
130	0xbe71db2f	-0.23618768
131	0x3fb50718	1.414279
132	0xbe4a3907	-0.19748317
133	0x4000801a	2.0078187
134	0xc0114454	-2.2697954
135	0x3fbdc561	1.482586
136	0x400be1c9	2.1856558
137	0xc01043c0	-2.2541351
138	0x3fc36c5d	1.5267445
139	0xbf1f4f67	-0.62230533
140	0x3eb6102d	0.35559216
141	0xbf3be3bc	-0.7339437
142	0x3f396abb	0.7242848
143	0x3f47381d	0.7782
144	0xbec71351	-0.38881925
145	0xbe8d32d5	-0.27577844
146	0x3f391ac6	0.7230648
147	0x3faaaf1c	1.3334689
148	0x3fc42ed8	1.5326796
149	0xbe2ebe1e	-0.17064711
150	0xbfe48a95	-1.7854792
151	0xbe56c05f	-0.20971821
152	0x4007a686	2.1195388
153	0xbf934228	-1.1504564
154	0xbe9613f9	-0.29312113
155	0x4036fe1a	2.8592591
156	0xbec99bce	-0.39376682
157	0x3f491531	0.7854796
158	0x3ffd7a8f	1.9803027
159	0x3f930675	1.1486346
160	0xbff52db9	-1.9154578
161	0xbf78ab73	-0.9713661
162	0xbee5ffe4	-0.44921792
163	0x3fbd7667	1.4801759
164	0x3f6c2aa6	0.92252576
165	0xbe9d6f74	-0.30749094
166	0xbf28683f	-0.65784067
167	0xbfc5e2b9	-1.5459815
168	0xbc8ee3a1	-0.017442526
169	0xbf7552f9	-0.9582973
170	0xbf445cff	-0.767044
171	0x3fbe7623	1.4879802
172	0xbe7e6b2d	-0.24845572
173	0x3f59b715	0.85044986
174	0x3da580e2	0.08081223
175	0x3de3cf86	0.11123566
176	0x3ffe5189	1.9868633
177	0xbfabea53	-1.3430885
178	0xbfe0dbc9	-1.7567073
179	0xbf475df0	-0.7787771
180	0xbec327ed	-0.38116398
181	0xbedb49c1	-0.42829707
182	0xbe85acd7	-0.2610843
183	0x3b8e4a1e	0.0043423316
184	0xbf4a6cf8	-0.79072523
185	0xbf4b2baa	-0.793635
186	0xbf690d71	-0.91036135
187	0xbe59b89a	-0.21261826
188	0x3da558b5	0.0807356
189	0x3d841261	0.06448818
190	0xbf55cbf0	-0.8351431
191	0xbec2674b	-0.3796943
192	0xbf55d0f1	-0.83521944
193	0xc00321f7	-2.048948
194	0x3ec7fd2b	0.3906034
195	0xbf3bcaf8	-0.7335658
196	0x3e039eee	0.12853596
197	0x3f18d19b	0.5969483
198	0xc02dd095	-2.7158558
199	0xbfcf222b	-1.6182302
200	0xbe76aecd	-0.24090119
201	0x3f7ca6ce	0.98692024
202	0x3e710729	0.23537888
203	0xbf9c26fa	-1.2199395
204	0xbfc0f570	-1.5074902
205	0x3fe7cc1d	1.8109165
206	0x3eff63b9	0.4988077
207	0x3fbac64b	1.4591764
208	0xbef9e00b	-0.48803744
209	0x3f631fff	0.887207
210	0xbfd7eef9	-1.6869804
211	0xbefeb310	-0.4974599
212	0x3fe8f40b	1.8199476
213	0x3f8a7c09	1.0819103
214	0x3f1c1f19	0.6098495
215	0xbf865d84	-1.0497289
216	0x3f9251c7	1.1431206
217	0xbf4fdfef	-0.8120107
218	0xbfc3f994	-1.531054
219	0xbf1662ed	-0.587447
220	0xbe88b9bf	-0.26704213
221	0x3f6a84a5	0.9160865
222	0x3fc8b9f1	1.5681745
223	0xbf8602de	-1.0469625
224	0xbe2d8daf	-0.16948579
225	0xbf748e41	-0.9552956
226	0x3fc8b2a7	1.567952
227	0xc0318671	-2.7738307
228	0x3fc4d125	1.5376326
229	0x3c82e50d	0.01597836
230	0x3f43812d	0.7636898
231	0xbfa4689d	-1.2844425
232	0x3e8258fb	0.25458512
233	0xbf129208	-0.57254076
234	0x3fd00bd7	1.6253613
235	0xbf34da20	-0.7064533
236	0xbfa7781e	-1.3083532
237	0xbf14fecd	-0.58201295
238	0x3ef7862f	0.4834456
239	0xbe910569	-0.2832444
240	0xbfaa28b1	-1.3293668
241	0x3e898a65	0.268634
242	0xbf7cedde	-0.98800457
243	0xbea90d81	-0.33018115
244	0xbf80b79d	-1.0056034
245	0xc04bdc3d	-3.1853173
246	0xbecae14a	-0.39625007
247	0xbfbdaa43	-1.4817585
248	0x3fa0b014	1.2553735
249	0xc05400c5	-3.312547
250	0xbfaed5c4	-1.3658986
251	0xbf586352	-0.8452655
252	0xbf7e2dfa	-0.99288905
253	0xbf1c233b	-0.6099126
254	0xbf582a6c	-0.8443973
255	0x3f521693	0.82065696

network.0.bias f4 [316]
0	0xbfff4174	-1.994185
1	0xc031a9db	-2.7759922
2	0xbfa75ad2	-1.3074591
3	0xbfd3aa9f	-1.6536444
4	0xc01fac0d	-2.4948761
5	0xc020f45a	-2.514914
6	0xc00aa049	-2.166033
7	0xbee4da19	-0.44697645
8	0xc0532a0b	-3.299441
9	0xbf8e685e	-1.11256
10	0xc03092a4	-2.7589502
11	0xbfbfdb51	-1.4988805
12	0xc006116e	-2.0948138
13	0xc01819b8	-2.3765697
14	0xbfa60540	-1.2970352
15	0xc047a75f	-3.1195905
16	0xc014ce99	-2.3251097
17	0xbfe053c0	-1.7525558
18	0xbfa4c8e9	-1.2873813
19	0xbfdc1b9d	-1.7195927
20	0xc00e66ec	-2.2250319
21	0xbeb03a82	-0.34419638
22	0xbfb57f15	-1.4179407
23	0xc00365b7	-2.0530832
24	0xbfdf2041	-1.7431718
25	0xbf8c5407	-1.0963143
26	0xbf8356ef	-1.0260905
27	0xc03a15a5	-2.907571
28	0xbfe64123	-1.7988628
29	0xbfb3ebdf	-1.4056357
30	0xc018928f	-2.3839452
31	0xbf8753ec	-1.0572486
32	0xbffa8766	-1.957257
33	0xc00fe059	-2.248068
34	0xbdc1ee46	-0.09469275
35	0xc020f179	-2.5147383
36	0xc02de605	-2.7171643
37	0xbfcdcb25	-1.607762
38	0x3bba4012	0.0056839073
39	0xbf415785	-0.7552417
40	0xc00f785f	-2.2417219
41	0xc01e188f	-2.470249
42	0xbfa0a22a	-1.2549489
43	0xbfe20b56	-1.765971
44	0xbf8fb767	-1.1227845
45	0xc0160e69	-2.3446295
46	0xc03bfc1c	-2.9372625
47	0xc0015112	-2.0205731
48	0xbfd4d437	-1.6627263
49	0xc0094852	-2.145039
50	0xbfbe7d8d	-1.4882065
51	0xc03b586c	-2.9272718
52	0xbff2ec26	-1.8978317
53	0xc018c1a5	-2.3868191
54	0xbfdd9b99	-1.731311
55	0xbf417b55	-0.75578815
56	0xc043dee3	-3.060479
57	0xc0220c69	-2.5320075
58	0xbe69ce0a	-0.22832504
59	0xc01e0347	-2.46895
60	0xbf7d51e7	-0.989531
61	0xbf63ab34	-0.8893311
62	0xbfdf2703	-1.743378
63	0xc01ea5f9	-2.4788802
64	0xbfb4e47f	-1.4132231
65	0xc03980e5	-2.898492
66	0xc0035a8f	-2.0524023
67	0xbfea9659	-1.8327132
68	0xbff7fcab	-1.9373983
69	0xc0100d9f	-2.2508314
70	0xbf91457d	-1.1349331
71	0xbf6d393b	-0.9266545
72	0xbfd1cc97	-1.6390561
73	0xc0262074	-2.5957308
74	0xbfdbf673	-1.7184585
75	0xc0250557	-2.578451
76	0x3e90ace2	0.282569
77	0xc0090e71	-2.1415064
78	0xbf85d009	-1.0454112
79	0xc01122e7	-2.2677553
80	0xc0050e33	-2.0789917
81	0xbf9deb0e	-1.2337358
82	0xc0100754	-2.2504473
83	0xc0436fa7	-3.0536897
84	0xc00eeaac	-2.2330732
85	0xbdb7d1c9	-0.0897556
86	0xbe3a4e1d	-0.1819386
87	0xc01b8d31	-2.4304926
88	0xbfb43a53	-1.4080299
89	0xbfeb0a55	-1.8362528
90	0xc0473b05	-3.1129773
91	0xbff33e13	-1.9003319
92	0xbf6c902c	-0.9240749
93	0x3ed8899a	0.42292482
94	0xc00d0b93	-2.2038314
95	0x3f06241f	0.52398866
96	0xbfc59aca	-1.5437863
97	0xbfb00cd2	-1.3753912
98	0xbfb94e16	-1.4476955
99	0x3e43bbbe	0.19114587
100	0xc07c6072	-3.9433866
101	0xbffcb832	-1.9743712
102	0xbf8fea60	-1.12434
103	0xbf84fbe2	-1.0389369
104	0xc063ea48	-3.5611744
105	0xc01d8fe5	-2.4619076
106	0xbfa40347	-1.28135
107	0xbee47ff4	-0.4462887
108	0xbea3ff9b	-0.3203095
109	0xbfc7b1e3	-1.5601162
110	0xc02bc0f7	-2.6836526
111	0xc009bba5	-2.152078
112	0xc0206805	-2.5063488
113	0xbf868053	-1.0507911
114	0xbea32412	-0.31863457
115	0x3e50f6cb	0.20406644
116	0xbf062e4d	-0.524144
117	0xc014ae4b	-2.323138
118	0xbfc8d5bc	-1.5690227
119	0xbfe8a5c2	-1.8175585
120	0xbf9d06ad	-1.2267662
121	0xc0274544	-2.6136026
122	0x3ea796ea	0.32732326
123	0xc02dc8ce	-2.7153811
124	0xbfa04df2	-1.2523787
125	0xc045ab83	-3.0885932
126	0xbf82ec9f	-1.0228461
127	0xbedf14db	-0.435706
128	0xc0290a24	-2.641244
129	0xc0079bda	-2.1188874
130	0xbfc62928	-1.548131
131	0xc01227c4	-2.283677
132	0xbf86cec5	-1.0531851
133	0xbfb32ab2	-1.3997405
134	0xc01836e1	-2.3783495
135	0xc040994c	-3.0093565
136	0xbf2df9b9	-0.6795917
137	0xbfd09b29	-1.6297351
138	0xbfec0f50	-1.8442173
139	0xc0069530	-2.1028557
140	0xbfa96cd2	-1.3236334
141	0xbf804401	-1.0020753
142	0xc00703cd	-2.109607
143	0xc0015f1e	-2.0214305
144	0xbf399fe4	-0.725096
145	0xc029def4	-2.654233
146	0xbe8cb336	-0.27480477
147	0xbe8d58dc	-0.27606857
148	0xc0199665	-2.3998044
149	0xbecdb6aa	-0.40178424
150	0xc00a653c	-2.1624289
151	0xbf4f3263	-0.8093626
152	0xbfc9a51d	-1.5753514
153	0xbecb654a	-0.39725715
154	0xc041b2cc	-3.026538
155	0xbfdcd829	-1.7253467
156	0xc02ee3cc	-2.7326536
157	0xbfed4591	-1.8536855
158	0xc02cd528	-2.70051
159	0xbf9979e7	-1.1990327
160	0xbe839229	-0.2569745
161	0xc032fd7d	-2.7967217
162	0xc00ee889	-2.2329428
163	0xbe431566	-0.19051132
164	0xc0025fa5	-2.0370877
165	0xc0202887	-2.5024736
166	0xbfe30f46	-1.7739036
167	0xbf0c6b43	-0.5485117
168	0x3f771981	0.9652329
169	0xbfb2528a	-1.3931439
170	0xbec4b29e	-0.38417524
171	0xbf94e88a	-1.1633465
172	0xbfca3e0f	-1.5800189
173	0xbffdf7e9	-1.9841281
174	0xbf7bf2c6	-0.9841732
175	0xc00bcfce	-2.1845584
176	0xc0093813	-2.1440475
177	0xc025a503	-2.5881965
178	0xbf409aa7	-0.7523598
179	0xbfdb5971	-1.713667
180	0xbd0c4c53	-0.034252476
181	0xbf1109be	-0.5665549
182	0xc01c4c50	-2.4421577
183	0xbfc3a3b4	-1.5284333
184	0xc02494ff	-2.571594
185	0xc03929be	-2.8931727
186	0xbfc8d59c	-1.5690188
187	0xbfee5762	-1.8620417
188	0xbfbc9bd8	-1.473506
189	0xc03835fd	-2.8782952
190	0xbff3a462	-1.9034541
191	0xbf61d248	-0.8821149
192	0xc021da25	-2.5289395
193	0xc0060b8b	-2.0944545
194	0xc0063e7a	-2.0975633
195	0xc0383a93	-2.878575
196	0xbf30a104	-0.6899569
197	0xbf9d52ba	-1.2290871
198	0xc0260b23	-2.5944297
199	0xbf65e816	-0.8980726
200	0xbf27351a	-0.653154
201	0xbec8e0ee	-0.39234108
202	0xbfc3aa77	-1.5286397
203	0xbfb5202c	-1.4150443
204	0xc06ae9ad	-3.6705124
205	0xc04d09d8	-3.2037258
206	0xbfc27d79	-1.5194541
207	0xbfc3a3e1	-1.5284387
208	0xc031fea5	-2.7811673
209	0xc026a34e	-2.6037173
210	0xbfd5bd77	-1.6698445
211	0xc0047516	-2.0696464
212	0xbe6c64ae	-0.23085281
213	0xc00128c0	-2.0181122
214	0xc02204db	-2.5315464
215	0xbfc9cb6f	-1.5765208
216	0xbfd3d531	-1.6549436
217	0xbe791b75	-0.2432688
218	0xbf8b7b20	-1.089695
219	0xbfa5e55c	-1.296062
220	0x3f2ccb00	0.67497253
221	0xbf3aad83	-0.7292101
222	0xbed44735	-0.41460577
223	0xc015fb34	-2.3434572
224	0xbffc15a1	-1.9694101
225	0xbf5670a0	-0.837656
226	0x3f1f9fe8	0.6235337
227	0xc0140c53	-2.3132522
228	0xbfe35f1c	-1.77634
229	0xbe8e6476	-0.2781102
230	0xc04e129f	-3.2198865
231	0x3ee3fd1a	0.4452904
232	0xbf7027ed	-0.9381092
233	0xc0223a2d	-2.5348008
234	0xc048501d	-3.1298897
235	0xc034dd4a	-2.8260064
236	0xc04c33bb	-3.1906574
237	0xc01a9251	-2.4151804
238	0xbe888c1b	-0.26669392
239	0xbff676fc	-1.9255061
240	0xc015b519	-2.3391783
241	0xbeb05b90	-0.34444857
242	0xc03df4e2	-2.9680715
243	0xbf959ea5	-1.168904
244	0xbf9dbfcf	-1.232416
245	0xbe87a00b	-0.2648929
246	0xbfa07de3	-1.2538418
247	0xbfe68c75	-1.8011614
248	0xbfb78960	-1.4338799
249	0xbf0a35d2	-0.53988373
250	0xc0073f83	-2.1132514
251	0xbfe6984d	-1.8015229
252	0xbe71cc17	-0.2361301
253	0xbe6fd389	-0.23420538
254	0xc036b8d1	-2.8550303
255	0xc0064317	-2.0978448

network.3.weight f4 [88, 316]
0	0xbe06c204	-0.13159949
1	0xbdb954c0	-0.09049368
2	0xbfac05a1	-1.3439218
3	0x3b0947b9	0.002094729
4	0xbf853521	-1.0406839
5	0xbe021320	-0.12702608
6	0xbdcccae2	-0.09999634
7	0xbf4ead85	-0.8073352
8	0xbd55ad31	-0.05216712
9	0xbe258dbf	-0.16167353
10	0xbe2e80e0	-0.1704135
11	0x3d8c7ad2	0.068593636
12	0xbf6dd1d8	-0.9289832
13	0xbebd88e9	-0.37018517
14	0xbf324f14	-0.69651914
15	0xbdd779a7	-0.1052125
16	0xbdeb819e	-0.11499332
17	0xbf4f6637	-0.8101534
18	0xbef04962	-0.46930987
19	0xbe15ddb5	-0.14635356
20	0xbf1eaf9e	-0.6198672
21	0xbd981dba	-0.07427545
22	0x3df0939c	0.11746904
23	0xbced0acd	-0.028935814
24	0xbde1cf7a	-0.11025901
25	0xbf51c9ce	-0.81948555
26	0xbe123eec	-0.14281815
27	0xbda8499d	-0.082171656
28	0xbe0abef4	-0.13549405
29	0xbdf375a8	-0.118876755
30	0xbf3707cb	-0.71496266
31	0xbe80d18b	-0.2515987
32	0xbfaf4983	-1.3694309
33	0x3ef08b30	0.46981192
34	0xbe761192	-0.2403014
35	0x3e334486	0.17506608
36	0xbecfade0	-0.40562344
37	0xbe427823	-0.18991141
38	0xbf230304	-0.63676476
39	0xbdef520a	-0.116855696
40	0x3eccdf2e	0.40014023
41	0x3f1050ca	0.56373274
42	0xbdc3e8a3	-0.09565856
43	0xbdc67f88	-0.096922934
44	0xbf1b2f5c	-0.6061914
45	0xbdd2dff3	-0.10296621
46	0x3e64b231	0.223336
47	0xbec13891	-0.3773847
48	0xbf2afdda	-0.66793597
49	0xbe1721c6	-0.14758977
50	0xbef03f46	-0.46923274
51	0x3eacd86a	0.3375886
52	0x3db3e584	0.08784011
53	0xbf79651d	-0.9741991
54	0xbe9c96c4	-0.30583775
55	0xbf40a813	-0.7525646
56	0xbd7f631d	-0.06235038
57	0xbdccf8a9	-0.10008366
58	0xbf84b802	-1.0368655
59	0xbfbc9a12	-1.4734519
60	0xbfb71e82	-1.4306185
61	0xbf3898a6	-0.72107923
62	0xbf0ed1d7	-0.5578894
63	0xbd9a6ba9	-0.07540066
64	0xbe6a8dde	-0.2290568
65	0xbe1b0490	-0.15138459
66	0xbf37f74e	-0.7186173
67	0xbf8b759e	-1.0895269
68	0xbdab1985	-0.08354477
69	0xbd87cdcd	-0.0663105
70	0xbd888e50	-0.06667769
71	0xbf35ea87	-0.71060985
72	0xbef7ab07	-0.4837267
73	0xbf1cc67f	-0.6124038
74	0xbe00d679	-0.12581815
75	0xbf5da7e7	-0.86584324
76	0xbde44111	-0.11145223
77	0xbea0de31	-0.3141952
78	0xbdd8d383	-0.10587218
79	0xbdaa2845	-0.08308462
80	0xbdcd1c62	-0.10015179
81	0xbd9e970d	-0.077436544
82	0xbd43ad60	-0.047772765
83	0xbf168898	-0.58802176
84	0xbf30e6cf	-0.69102186
85	0xbf924fb6	-1.1430576
86	0x3d7923fa	0.060825326
87	0x3f443807	0.7664799
88	0x3de36f40	0.11105204
89	0xbe3d91fd	-0.18512721
90	0xbf12508f	-0.5715417
91	0xbfc611e0	-1.5474205
92	0x3e41274c	0.18862647
93	0xbf7a79a5	-0.97841865
94	0xbec0f9a6	-0.37690467
95	0xbe528e7c	-0.20562166
96	0xbf704c15	-0.9386609
97	0x3d4d0b18	0.050059408
98	0xbf445492	-0.76691544
99	0xbe28ab4a	-0.16471592
100	0x3f5ed000	0.8703613
101	0x3eb95cb6	0.36203545
102	0xbdcdc867	-0.10047989
103	0xbf331b54	-0.69963574
104	0x3f93655e	1.151531
105	0xbf6fd960	-0.9369106
106	0xbde044b6	-0.109506056
107	0xbf410498	-0.75397635
108	0xbd6879fb	-0.056756955
109	0xbf84875f	-1.0353812
110	0x3cd676ad	0.026179636
111	0xbe383349	-0.17988314
112	0xbe02aad3	-0.12760477
113	0xbfa6e9ca	-1.3040097
114	0xbed65be8	-0.41866994
115	0xbdbd47a6	-0.092421815
116	0x3f530ed1	0.82444483
117	0xbfc9db02	-1.5769961
118	0xbdf663d8	-0.120307624
119	0xbe40e0f4	-0.18835813
120	0xbf32a885	-0.6978839
121	0x3d723cd0	0.059140027
122	0xbf3942dc	-0.72367644
123	0xbddfac00	-0.10921478
124	0xbe28b821	-0.1647649
125	0xbfac1486	-1.3443763
126	0xbc699279	-0.014256113
127	0xbf194586	-0.5987171
128	0xbe0c40d0	-0.13696599
129	0xbd7a9120	-0.06117356
130	0xbf6e4da9	-0.9308725
131	0xbd87596c	-0.06608853
132	0xbf3547e2	-0.7081281
133	0xbe0617d3	-0.13095026
134	0xbd6c7c0c	-0.057735488
135	0xbe924f59	-0.28576162
136	0xbdc1b602	-0.09458543
137	0xbe8a5f0e	-0.27025646
138	0xbdc51ec8	-0.09625012
139	0xbdf45c34	-0.11931649
140	0xbdb5ae97	-0.08871191
141	0xbe284cfa	-0.16435614
142	0xbde15846	-0.11003165
143	0x3d79c305	0.060977
144	0xbd913e8e	-0.070920095
145	0xbf16b03a	-0.5886265
146	0xbdae9ffc	-0.08526608
147	0xbdd00ccb	-0.1015869
148	0xbe563cb2	-0.20921591
149	0xbdbce4f0	-0.09223354
150	0xbf00d81c	-0.50329757
151	0xbd113aa5	-0.03545632
152	0xbda12f8c	-0.07870397
153	0xbe283507	-0.16426478
154	0xbd03c250	-0.032167733
155	0xbddde347	-0.10834365
156	0xbe27e944	-0.16397578
157	0xbe23fee6	-0.16015205
158	0x3a8847f1	0.0010397417
159	0xbf2ccd7e	-0.67501056
160	0xbdc5b624	-0.09653881
161	0xbaa74bd0	-0.0012763683
162	0xbf2d9497	-0.67804855
163	0xbd955f6b	-0.0729359
164	0x3f7eb425	0.9949363
165	0xbd6965e5	-0.05698194
166	0xbdcc77f1	-0.099838145
167	0xbe82f676	-0.2557866
168	0xbf0799c0	-0.5296898
169	0xbe29a0dc	-0.16565269
170	0xbe182194	-0.14856559
171	0xbf069088	-0.5256429
172	0xbf1f9d32	-0.62349236
173	0xbf5ef793	-0.8709652
174	0xbe2e1f45	-0.17004116
175	0xbda0eec1	-0.07858039
176	0x3f1cff7f	0.61327356
177	0xbf59c5b8	-0.8506732
178	0xbdad445c	-0.08460304
179	0xbf209d7b	-0.62740296
180	0xbf863be8	-1.0487032
181	0xbed0f038	-0.40808272
182	0xbd861431	-0.0654682
183	0xbf2e5df5	-0.6811212
184	0xbda958c3	-0.08268883
185	0xbf47d225	-0.7805503
186	0xbf70240e	-0.93805015
187	0xb9ad0841	-0.0003300328
188	0x3e1306a8	0.14358008
189	0xbe0a6836	-0.13516316
190	0x3eec7f52	0.46190888
191	0xbe85c0d6	-0.26123685
192	0xbfa785b3	-1.3087677
193	0xbccd4645	-0.025057921
194	0xbf04d9e7	-0.5189499
195	0xbdb5859f	-0.08863377
196	0xbf7bed01	-0.98408514
197	0xbf6e0a14	-0.9298413
198	0xbf253740	-0.6453743
199	0xbf39730f	-0.7244119
200	0xbf1665e7	-0.5874924
201	0xbcd0b3a8	-0.025476292
202	0xbe8f6523	-0.2800685
203	0xbddf8b6a	-0.10915263
204	0x3deacb4a	0.114645556
205	0x3db65b37	0.089041166
206	0xbf32d26f	-0.69852346
207	0xbe2d006d	-0.16894694
208	0xbd80bfc1	-0.06286574
209	0xbea7e2a2	-0.32790095
210	0xbf33c191	-0.70217234
211	0xbf2540b4	-0.64551854
212	0x3d74358c	0.05962138
213	0xbe06076c	-0.13088769
214	0x3ea46f51	0.32116178
215	0xbe249f59	-0.16076411
216	0xbf38bbda	-0.7216164
217	0xbd1f1395	-0.038837034
218	0xbe275875	-0.16342337
219	0xbd9b41d9	-0.07580919
220	0x3f32b4dc	0.6980722
221	0xbd5499cf	-0.051904496
222	0x3f129f03	0.5727388
223	0xbe75a681	-0.23989297
224	0xbe12c8a6	-0.14334354
225	0xbf275721	-0.65367323
226	0xbd8963aa	-0.067084625
227	0xbe1d6c7c	-0.15373415
228	0xbd8a5e66	-0.06756286
229	0x3e24e574	0.16103154
230	0xbe344146	-0.17603025
231	0xbe2b528d	-0.1673071
232	0xbddd9a12	-0.10820402
233	0xbe145922	-0.14487126
234	0x3e6c0936	0.23050389
235	0xbdf2f551	-0.11863197
236	0xbdabc133	-0.08386459
237	0xbe0d03f5	-0.1377104
238	0xbe194b42	-0.14970115
239	0xbf1e22d9	-0.61771923
240	0xbde58324	-0.11206654
241	0xbc29e3c4	-0.010369245
242	0xbf154c82	-0.58319867
243	0xbf10789a	-0.56434023
244	0xbe849a4b	-0.25898966
245	0xbec32afb	-0.3811873
246	0xbe763da4	-0.24046952
247	0xbd4ca6f6	-0.049963914
248	0xbc1c0d76	-0.009524694
249	0xbf95b244	-1.1695027
250	0xbe1d45ae	-0.15358612
251	0xbceaee0a	-0.028677959
252	0xbdef6f26	-0.11691122
253	0xbd9aea17	-0.0756418
254	0xbe12686c	-0.14297646
255	0xbf2c160d	-0.67221147

network.3.bias f4 [88]
0	0xbfe3d28b	-1.7798628
1	0xc017178b	-2.360812
2	0x3ef69f55	0.48168436
3	0xbfe0231e	-1.7510717
4	0xbe4a5085	-0.19757278
5	0xbfb6b659	-1.4274398
6	0xbfd5f35b	-1.6714891
7	0xbf40a961	-0.7525845
8	0xbfac2f8d	-1.3452011
9	0xbcc206d2	-0.023684893
10	0xbfc53dab	-1.5409445
11	0xbe56ac11	-0.20964076
12	0xc01118c8	-2.2671375
13	0xbf18a853	-0.5963184
14	0xbf243cbf	-0.6415519
15	0xbf42bfb6	-0.7607378
16	0xbf397d8d	-0.724572
17	0xbf70bc3b	-0.94037217
18	0x3fa8f917	1.3201016
19	0xc046e516	-3.1077323
20	0xbfa94842	-1.3225176
21	0xbf683b53	-0.9071552
22	0xbf91a68a	-1.1378949
23	0xbf313261	-0.692175
24	0xbd52e588	-0.05148843
25	0xbfb9e5fb	-1.452331
26	0xbf8d27ed	-1.1027809
27	0xbf65021f	-0.8945636
28	0xbf991319	-1.1958953
29	0xc0317683	-2.7728584
30	0xbdd70fc1	-0.10501052
31	0xbfce4548	-1.6114893
32	0xbfa7c0c5	-1.3105704
33	0xc016a7a2	-2.3539815
34	0xbe875ac0	-0.26436424
35	0xbeb4f429	-0.3534253
36	0xc01e29f0	-2.4713097
37	0xbf7491a4	-0.9553473
38	0xc013af17	-2.3075616
39	0xbebe3147	-0.3714697
40	0xc01891e0	-2.3839035
41	0xbf0b0b2b	-0.54313916
42	0xbf8084cb	-1.0040525
43	0xbf1fd9f1	-0.6244193
44	0xbe7935e2	-0.24336961
45	0xbfb91032	-1.4458067
46	0xbfdcdb1d	-1.7254368
47	0x3e156155	0.1458791
48	0x3ef60fd8	0.48058963
49	0xbe8e1078	-0.2774694
50	0xbfff89e3	-1.9963955
51	0xbf2a7c11	-0.6659556
52	0xbf3b330d	-0.7312477
53	0x3e40e991	0.18839099
54	0xbf0486e4	-0.51768327
55	0x3e977add	0.29585925
56	0xbf6ff13f	-0.9372749
57	0xbf24e4e3	-0.64411753
58	0xbfd604fe	-1.6720273
59	0xc0379926	-2.8687224
60	0xc0053616	-2.0814261
61	0xbead4643	-0.33842668
62	0xbe4ee0f3	-0.20202999
63	0xbcf68d08	-0.030096546
64	0x3ec86318	0.39138103
65	0xc0080649	-2.1253836
66	0xbd73224f	-0.05935889
67	0xbfee488f	-1.8615893
68	0xbfa869a1	-1.3157235
69	0xbe206b37	-0.15665899
70	0x3f0aee48	0.5426984
71	0xbff2c73b	-1.896705
72	0xbfaf2410	-1.368288
73	0xbcbcef49	-0.023063319
74	0xbda725d9	-0.08161516
75	0x3f9915ed	1.1959816
76	0xbfc1f4cf	-1.5152835
77	0xc054fa81	-3.3277895
78	0xbeda0b7f	-0.42586896
79	0xbfa1a81e	-1.262943
80	0xc00898c2	-2.1343236
81	0xbe19a37e	-0.15003774
82	0xbf185efc	-0.59519935
83	0x3ed3b592	0.41349465
84	0xbe44107c	-0.19146913
85	0xbf9a61a7	-1.2061051
86	0xc02be7ab	-2.686015
87	0xc025839d	-2.586158

network.6.weight f4 [2, 88]
0	0xbe145160	-0.14484167
1	0x3e6f146a	0.23347631
2	0xbe7512ec	-0.23933
3	0xbe8e8613	-0.27836666
4	0x3d0ffc1d	0.035152543
5	0xbe40f813	-0.18844633
6	0x3e8ddbec	0.2770685
7	0x3e76b9e7	0.24094354
8	0x3eb9d366	0.36294097
9	0x3dcee85a	0.10102911
10	0x3e0cb72e	0.13741753
11	0x3d7478d9	0.05968556
12	0x3bd17a00	0.0063927174
13	0xbec46554	-0.38358557
14	0xbe0a7b47	-0.13523589
15	0x3ef9fa63	0.48823842
16	0xbebbf281	-0.36708453
17	0x3effb901	0.49945834
18	0xbe100a06	-0.14066324
19	0xbc5dfb55	-0.013548692
20	0xbe0b36b5	-0.13595088
21	0xbe600c8b	-0.21879785
22	0xbe826636	-0.25468606
23	0xbd554d3f	-0.05207562
24	0xbcf98a9c	-0.030461602
25	0x3ea2c41c	0.31790245
26	0xbed10991	-0.4082761
27	0xbd494a76	-0.049143277
28	0xbe9fd7be	-0.31219286
29	0x3e8afffe	0.27148432
30	0x3e0e060d	0.13869496
31	0xbe4b09c8	-0.1982795
32	0xbe966ffd	-0.29382315
33	0xbde51a60	-0.11186671
34	0x3dfe0efb	0.12405201
35	0xbe4f967d	-0.2027225
36	0xbe1a877d	-0.15090747
37	0x3da98f63	0.08279302
38	0x3d9c8eff	0.07644462
39	0xbd8d6b0c	-0.06905183
40	0xbe25f03d	-0.16204925
41	0xbe165b31	-0.14683224
42	0x3e84a364	0.25905907
43	0xbd2e8ae5	-0.04261293
44	0xbc9cc6fd	-0.019137854
45	0xbe77ce4e	-0.24199793
46	0xbe411fc5	-0.18859775
47	0x3aa4eacc	0.0012582182
48	0x3d3d3e10	0.046201766
49	0xbdaf3942	-0.08555843
50	0x3edac061	0.42724898
51	0x3e953cf4	0.29148066
52	0xbdce981d	-0.10087607
53	0x3dd8f689	0.10593898
54	0xbed85760	-0.42254162
55	0xbe412712	-0.1886256
56	0xbef79504	-0.48355877
57	0xbe8a840d	-0.27053872
58	0x3ec2c3ff	0.38040158
59	0x3dbdf284	0.09274772
60	0x3e3fa60f	0.1871569
61	0xbdcd70de	-0.10031293
62	0x3dd04059	0.10168523
63	0xbd6c37ae	-0.057670288
64	0x3f08578a	0.53258574
65	0x3eab8c35	0.33505407
66	0xbc56f460	-0.013119787
67	0x3ebb6609	0.36601284
68	0x3e7e867f	0.24855994
69	0xbdd15984	-0.10222152
70	0x3ec96de6	0.39341658
71	0x3d4c429e	0.04986822
72	0x3e1e29e2	0.15445665
73	0x3b9dafce	0.0048122173
74	0xbdedac01	-0.11605073
75	0x3d911aa0	0.070851564
76	0x3c4bdae8	0.012442328
77	0x3e05f630	0.13082194
78	0xbe0d9964	-0.13828045
79	0xbf01f4b6	-0.50764024
80	0xbddd1d93	-0.107966565
81	0xbdd427d7	-0.10359161
82	0xbef250b8	-0.4732721
83	0xbdeeef5d	-0.11666749
84	0xbd3e3d6d	-0.0464453
85	0xbee91da5	-0.4553043
86	0x3d8b86f2	0.06812848
87	0xbe2e3681	-0.17012979
88	0x3d99eb72	0.07515611
89	0xbddbe3df	-0.10736822
90	0x3e47d12e	0.1951339
91	0x3eac2505	0.33621994
92	0xbd817699	-0.06321449
93	0x3dfb34f8	0.12265962
94	0xbe11bb08	-0.14231503
95	0xbe51d8c9	-0.20492853
96	0xbef7422c	-0.48292673
97	0x3d9266be	0.07148503
98	0xb9e675d8	-0.0004395682
99	0xbd6ce1f1	-0.057832662
100	0x3de502e0	0.11182189
101	0x3e9dd265	0.3082458
102	0x3d99f0e7	0.075166516
103	0xbf0064d6	-0.50153863
104	0x3f0e7060	0.5564022
105	0xbf0ba9b1	-0.54555804
106	0x3dd8dde3	0.105891965
107	0x3e397f2f	0.18114923
108	0x3e03a0b3	0.1285427
109	0x3dbb4c04	0.09145358
110	0x3e12306d	0.14276285
111	0xbb5c5cba	-0.0033624605
112	0xbc80627d	-0.015671963
113	0xbee21764	-0.4415847
114	0x3eba29d2	0.3636003
115	0x3dafe487	0.0858851
116	0x3ee69143	0.450327
117	0xbeda84fc	-0.42679584
118	0xbd983d12	-0.07433523
119	0x3d0138e3	0.031548392
120	0x3ea783cb	0.32717738
121	0x3db44c1c	0.08803579
122	0xbdb69166	-0.08914451
123	0x3e0f93ee	0.14021274
124	0x3e294964	0.16531903
125	0xbd2bb244	-0.041918054
126	0x3db53976	0.088488504
127	0x3d5cbe4c	0.05389242
128	0x3e2b5dbe	0.16734979
129	0x3d9dd139	0.07705922
130	0xbe851fab	-0.26000723
131	0x3d5d5eee	0.05404561
132	0x3dacc4a1	0.084359415
133	0x3e6f1f9b	0.233519
134	0x3e43ca95	0.19120248
135	0xbd3b3f76	-0.045714818
136	0xbdde06eb	-0.10841163
137	0x3e557b38	0.20847785
138	0xbeda5a6b	-0.42647108
139	0xbe831597	-0.2560241
140	0x3d4ef86c	0.050529882
141	0xbe175ae5	-0.14780767
142	0x3ee5a3bd	0.44851485
143	0x3d2385bb	0.039922457
144	0x3ed19419	0.40933302
145	0x3ec6911c	0.38782585
146	0xbeb89fb6	-0.3605935
147	0xbdb39f77	-0.0877065
148	0xbd4268e6	-0.04746332
149	0x3c06c029	0.0082245255
150	0xbc6859b4	-0.014181543
151	0x3c0fe3f2	0.008782374
152	0xbefc606b	-0.4929231
153	0xbe93b6c5	-0.2885038
154	0x3d8b5eb0	0.068051696
155	0xbea76378	-0.32693076
156	0xbedf4d72	-0.43613774
157	0x3de90c88	0.11379343
158	0xbe6668d7	-0.2250093
159	0x3d048fa2	0.03236354
160	0xbdca6bfb	-0.09883877
161	0xbdca194f	-0.098681085
162	0xbd08af74	-0.03337045
163	0xbe0459f9	-0.12924947
164	0xbcf6a940	-0.030110002
165	0xbe05e534	-0.13075715
166	0x3d61c190	0.055116236
167	0x3ee84916	0.4536826
168	0x3e0e6608	0.1390611
169	0x3d5f734f	0.054553326
170	0x3f1e9cf7	0.6195826
171	0x3dff8218	0.12475985
172	0xbd0301d3	-0.03198416
173	0x3ef28199	0.473645
174	0xbe3dd57f	-0.18538474
175	0x3c76f633	0.015073347

network.6.bias f4 [2]
0	0x3efae5ec	0.4900354
1	0xbec2d9a8	-0.38056684
